…
snapshot_prefix: "vgg_cnn_m_1024_faster_rcnn"
average_loss: 100
I0807 18:33:02.256088 26199 solver.cpp:92] Creating training net from train_net file: models/irsg_objs/VGG_CNN_M_1024/faster_rcnn_end2end/train.prototxt
I0807 18:33:02.256562 26199 net.cpp:51] Initializing net from parameters: 
name: "VGG_CNN_M_1024"
state {
  phase: TRAIN
}
layer {
  name: "input-data"
  type: "Python"
  top: "data"
  top: "im_info"
  top: "gt_boxes"
  python_param {
    module: "roi_data_layer.layer"
    layer: "RoIDataLayer"
    param_str: "\'num_classes\': 267"
  }
}
layer {
  name: "conv1"
  type: "Convolution"
  bottom: "data"
  top: "conv1"
  param {
    lr_mult: 0
    decay_mult: 0
  }
  param {
    lr_mult: 0
    decay_mult: 0
  }
  convolution_param {
    num_output: 96
    kernel_size: 7
    stride: 2
  }
}
layer {
  name: "relu1"
  type: "ReLU"
  bottom: "conv1"
  top: "conv1"
}
layer {
  name: "norm1"
  type: "LRN"
  bottom: "conv1"
  top: "norm1"
  lrn_param {
    local_size: 5
    alpha: 0.0005
    beta: 0.75
    k: 2
  }
}
layer {
  name: "pool1"
  type: "Pooling"
  bottom: "norm1"
  top: "pool1"
  pooling_param {
    pool: MAX
    kernel_size: 3
    stride: 2
  }
}
layer {
  name: "conv2"
  type: "Convolution"
  bottom: "pool1"
  top: "conv2"
  param {
    lr_mult: 1
  }
  param {
    lr_mult: 2
  }
  convolution_param {
    num_output: 256
    pad: 1
    kernel_size: 5
    stride: 2
  }
}
layer {
  name: "relu2"
  type: "ReLU"
  bottom: "conv2"
  top: "conv2"
}
layer {
  name: "norm2"
  type: "LRN"
  bottom: "conv2"
  top: "norm2"
  lrn_param {
    local_size: 5
    alpha: 0.0005
    beta: 0.75
    k: 2
  }
}
layer {
  name: "pool2"
  type: "Pooling"
  bottom: "norm2"
  top: "pool2"
  pooling_param {
    pool: MAX
    kernel_size: 3
    stride: 2
  }
}
layer {
  name: "conv3"
  type: "Convolution"
  bottom: "pool2"
  top: "conv3"
  param {
    lr_mult: 1
  }
  param {
    lr_mult: 2
  }
  convolution_param {
    num_output: 512
    pad: 1
    kernel_size: 3
  }
}
layer {
  name: "relu3"
  type: "ReLU"
  bottom: "conv3"
  top: "conv3"
}
layer {
  name: "conv4"
  type: "Convolution"
  bottom: "conv3"
  top: "conv4"
  param {
    lr_mult: 1
  }
  param {
    lr_mult: 2
  }
  convolution_param {
    num_output: 512
    pad: 1
    kernel_size: 3
  }
}
layer {
  name: "relu4"
  type: "ReLU"
  bottom: "conv4"
  top: "conv4"
}
layer {
  name: "conv5"
  type: "Convolution"
  bottom: "conv4"
  top: "conv5"
  param {
    lr_mult: 1
  }
  param {
    lr_mult: 2
  }
  convolution_param {
    num_output: 512
    pad: 1
    kernel_size: 3
  }
}
layer {
  name: "relu5"
  type: "ReLU"
  bottom: "conv5"
  top: "conv5"
}
layer {
  name: "rpn_conv/3x3"
  type: "Convolution"
  bottom: "conv5"
  top: "rpn/output"
  param {
    lr_mult: 1
  }
  param {
    lr_mult: 2
  }
  convolution_param {
    num_output: 256
    pad: 1
    kernel_size: 3
    stride: 1
    weight_filler {
      type: "gaussian"
      std: 0.01
    }
    bias_filler {
      type: "constant"
      value: 0
    }
  }
}
layer {
  name: "rpn_relu/3x3"
  type: "ReLU"
  bottom: "rpn/output"
  top: "rpn/output"
}
layer {
  name: "rpn_cls_score"
  type: "Convolution"
  bottom: "rpn/output"
  top: "rpn_cls_score"
  param {
    lr_mult: 1
  }
  param {
    lr_mult: 2
  }
  convolution_param {
    num_output: 18
    pad: 0
    kernel_size: 1
    stride: 1
    weight_filler {
      type: "gaussian"
      std: 0.01
    }
    bias_filler {
      type: "constant"
      value: 0
    }
  }
}
layer {
  name: "rpn_bbox_pred"
  type: "Convolution"
  bottom: "rpn/output"
  top: "rpn_bbox_pred"
  param {
    lr_mult: 1
  }
  param {
    lr_mult: 2
  }
  convolution_param {
    num_output: 36
    pad: 0
    kernel_size: 1
    stride: 1
    weight_filler {
      type: "gaussian"
      std: 0.01
    }
    bias_filler {
      type: "constant"
      value: 0
    }
  }
}
layer {
  name: "rpn_cls_score_reshape"
  type: "Reshape"
  bottom: "rpn_cls_score"
  top: "rpn_cls_score_reshape"
  reshape_param {
    shape {
      dim: 0
      dim: 2
      dim: -1
      dim: 0
    }
  }
}
layer {
  name: "rpn-data"
  type: "Python"
  bottom: "rpn_cls_score"
  bottom: "gt_boxes"
  bottom: "im_info"
  bottom: "data"
  top: "rpn_labels"
  top: "rpn_bbox_targets"
  top: "rpn_bbox_inside_weights"
  top: "rpn_bbox_outside_weights"
  python_param {
    module: "rpn.anchor_target_layer"
    layer: "AnchorTargetLayer"
    param_str: "\'feat_stride\': 16"
  }
}
layer {
  name: "rpn_loss_cls"
  type: "SoftmaxWithLoss"
  bottom: "rpn_cls_score_reshape"
  bottom: "rpn_labels"
  top: "rpn_cls_loss"
  loss_weight: 1
  propagate_down: true
  propagate_down: false
  loss_param {
    ignore_label: -1
    normalize: true
  }
}
layer {
  name: "rpn_loss_bbox"
  type: "SmoothL1Loss"
  bottom: "rpn_bbox_pred"
  bottom: "rpn_bbox_targets"
  bottom: "rpn_bbox_inside_weights"
  bottom: "rpn_bbox_outside_weights"
  top: "rpn_loss_bbox"
  loss_weight: 1
  smooth_l1_loss_param {
    sigma: 3
  }
}
layer {
  name: "rpn_cls_prob"
  type: "Softmax"
  bottom: "rpn_cls_score_reshape"
  top: "rpn_cls_prob"
}
layer {
  name: "rpn_cls_prob_reshape"
  type: "Reshape"
  bottom: "rpn_cls_prob"
  top: "rpn_cls_prob_reshape"
  reshape_param {
    shape {
      dim: 0
      dim: 18
      dim: -1
      dim: 0
    }
  }
}
layer {
  name: "proposal"
  type: "Python"
  bottom: "rpn_cls_prob_reshape"
  bottom: "rpn_bbox_pred"
  bottom: "im_info"
  top: "rpn_rois"
  python_param {
    module: "rpn.proposal_layer"
    layer: "ProposalLayer"
    param_str: "\'feat_stride\': 16"
  }
}
layer {
  name: "roi-data"
  type: "Python"
  bottom: "rpn_rois"
  bottom: "gt_boxes"
  top: "rois"
  top: "labels"
  top: "bbox_targets"
  top: "bbox_inside_weights"
  top: "bbox_outside_weights"
  python_param {
    module: "rpn.proposal_target_layer"
    layer: "ProposalTargetLayer"
    param_str: "\'num_classes\': 267"
  }
}
layer {
  name: "roi_pool5"
  type: "ROIPooling"
  bottom: "conv5"
  bottom: "rois"
  top: "pool5"
  roi_pooling_param {
    pooled_h: 6
    pooled_w: 6
    spatial_scale: 0.0625
  }
}
layer {
  name: "fc6"
  type: "InnerProduct"
  bottom: "pool5"
  top: "fc6"
  param {
    lr_mult: 1
  }
  param {
    lr_mult: 2
  }
  inner_product_param {
    num_output: 4096
  }
}
layer {
  name: "relu6"
  type: "ReLU"
  bottom: "fc6"
  top: "fc6"
}
layer {
  name: "drop6"
  type: "Dropout"
  bottom: "fc6"
  top: "fc6"
  dropout_param {
    dropout_ratio: 0.5
  }
}
layer {
  name: "fc7"
  type: "InnerProduct"
  bottom: "fc6"
  top: "fc7"
  param {
    lr_mult: 1
  }
  param {
    lr_mult: 2
  }
  inner_product_param {
    num_output: 1024
  }
}
layer {
  name: "relu7"
  type: "ReLU"
  bottom: "fc7"
  top: "fc7"
}
layer {
  name: "drop7"
  type: "Dropout"
  bottom: "fc7"
  top: "fc7"
  dropout_param {
    dropout_ratio: 0.5
  }
}
layer {
  name: "cls_score"
  type: "InnerProduct"
  bottom: "fc7"
  top: "cls_score"
  param {
    lr_mult: 1
  }
  param {
    lr_mult: 2
  }
  inner_product_param {
    num_output: 267
    weight_filler {
      type: "gaussian"
      std: 0.01
    }
    bias_filler {
      type: "constant"
      value: 0
    }
  }
}
layer {
  name: "bbox_pred"
  type: "InnerProduct"
  bottom: "fc7"
  top: "bbox_pred"
  param {
    lr_mult: 1
  }
  param {
    lr_mult: 2
  }
  inner_product_param {
    num_output: 1068
    weight_filler {
      type: "gaussian"
      std: 0.001
    }
    bias_filler {
      type: "constant"
      value: 0
    }
  }
}
layer {
  name: "loss_cls"
  type: "SoftmaxWithLoss"
  bottom: "cls_score"
  bottom: "labels"
  top: "loss_cls"
  loss_weight: 1
  propagate_down: true
  propagate_down: false
}
layer {
  name: "loss_bbox"
  type: "SmoothL1Loss"
  bottom: "bbox_pred"
  bottom: "bbox_targets"
  bottom: "bbox_inside_weights"
  bottom: "bbox_outside_weights"
  top: "loss_bbox"
  loss_weight: 1
}
I0807 18:33:02.256769 26199 layer_factory.hpp:77] Creating layer input-data
I0807 18:33:02.409067 26199 net.cpp:84] Creating Layer input-data
I0807 18:33:02.409090 26199 net.cpp:380] input-data -> data
I0807 18:33:02.409101 26199 net.cpp:380] input-data -> im_info
I0807 18:33:02.409107 26199 net.cpp:380] input-data -> gt_boxes
RoiDataLayer: name_to_top: {'gt_boxes': 2, 'data': 0, 'im_info': 1}
I0807 18:33:02.410382 26199 net.cpp:122] Setting up input-data
I0807 18:33:02.410394 26199 net.cpp:129] Top shape: 1 3 600 1000 (1800000)
I0807 18:33:02.410398 26199 net.cpp:129] Top shape: 1 3 (3)
I0807 18:33:02.410403 26199 net.cpp:129] Top shape: 1 4 (4)
I0807 18:33:02.410404 26199 net.cpp:137] Memory required for data: 7200028
I0807 18:33:02.410409 26199 layer_factory.hpp:77] Creating layer data_input-data_0_split
I0807 18:33:02.410420 26199 net.cpp:84] Creating Layer data_input-data_0_split
I0807 18:33:02.410426 26199 net.cpp:406] data_input-data_0_split <- data
I0807 18:33:02.410432 26199 net.cpp:380] data_input-data_0_split -> data_input-data_0_split_0
I0807 18:33:02.410440 26199 net.cpp:380] data_input-data_0_split -> data_input-data_0_split_1
I0807 18:33:02.410470 26199 net.cpp:122] Setting up data_input-data_0_split
I0807 18:33:02.410476 26199 net.cpp:129] Top shape: 1 3 600 1000 (1800000)
I0807 18:33:02.410480 26199 net.cpp:129] Top shape: 1 3 600 1000 (1800000)
I0807 18:33:02.410483 26199 net.cpp:137] Memory required for data: 21600028
I0807 18:33:02.410486 26199 layer_factory.hpp:77] Creating layer im_info_input-data_1_split
I0807 18:33:02.410491 26199 net.cpp:84] Creating Layer im_info_input-data_1_split
I0807 18:33:02.410495 26199 net.cpp:406] im_info_input-data_1_split <- im_info
I0807 18:33:02.410500 26199 net.cpp:380] im_info_input-data_1_split -> im_info_input-data_1_split_0
I0807 18:33:02.410506 26199 net.cpp:380] im_info_input-data_1_split -> im_info_input-data_1_split_1
I0807 18:33:02.410528 26199 net.cpp:122] Setting up im_info_input-data_1_split
I0807 18:33:02.410533 26199 net.cpp:129] Top shape: 1 3 (3)
I0807 18:33:02.410537 26199 net.cpp:129] Top shape: 1 3 (3)
I0807 18:33:02.410540 26199 net.cpp:137] Memory required for data: 21600052
I0807 18:33:02.410543 26199 layer_factory.hpp:77] Creating layer gt_boxes_input-data_2_split
I0807 18:33:02.410547 26199 net.cpp:84] Creating Layer gt_boxes_input-data_2_split
I0807 18:33:02.410550 26199 net.cpp:406] gt_boxes_input-data_2_split <- gt_boxes
I0807 18:33:02.410555 26199 net.cpp:380] gt_boxes_input-data_2_split -> gt_boxes_input-data_2_split_0
I0807 18:33:02.410560 26199 net.cpp:380] gt_boxes_input-data_2_split -> gt_boxes_input-data_2_split_1
I0807 18:33:02.410584 26199 net.cpp:122] Setting up gt_boxes_input-data_2_split
I0807 18:33:02.410591 26199 net.cpp:129] Top shape: 1 4 (4)
I0807 18:33:02.410595 26199 net.cpp:129] Top shape: 1 4 (4)
I0807 18:33:02.410598 26199 net.cpp:137] Memory required for data: 21600084
I0807 18:33:02.410601 26199 layer_factory.hpp:77] Creating layer conv1
I0807 18:33:02.410614 26199 net.cpp:84] Creating Layer conv1
I0807 18:33:02.410617 26199 net.cpp:406] conv1 <- data_input-data_0_split_0
I0807 18:33:02.410622 26199 net.cpp:380] conv1 -> conv1
I0807 18:33:02.858705 26199 net.cpp:122] Setting up conv1
I0807 18:33:02.858733 26199 net.cpp:129] Top shape: 1 96 297 497 (14170464)
I0807 18:33:02.858736 26199 net.cpp:137] Memory required for data: 78281940
I0807 18:33:02.858752 26199 layer_factory.hpp:77] Creating layer relu1
I0807 18:33:02.858762 26199 net.cpp:84] Creating Layer relu1
I0807 18:33:02.858767 26199 net.cpp:406] relu1 <- conv1
I0807 18:33:02.858772 26199 net.cpp:367] relu1 -> conv1 (in-place)
I0807 18:33:02.858940 26199 net.cpp:122] Setting up relu1
I0807 18:33:02.858950 26199 net.cpp:129] Top shape: 1 96 297 497 (14170464)
I0807 18:33:02.858952 26199 net.cpp:137] Memory required for data: 134963796
I0807 18:33:02.858956 26199 layer_factory.hpp:77] Creating layer norm1
I0807 18:33:02.858963 26199 net.cpp:84] Creating Layer norm1
I0807 18:33:02.858966 26199 net.cpp:406] norm1 <- conv1
I0807 18:33:02.858970 26199 net.cpp:380] norm1 -> norm1
I0807 18:33:02.859144 26199 net.cpp:122] Setting up norm1
I0807 18:33:02.859153 26199 net.cpp:129] Top shape: 1 96 297 497 (14170464)
I0807 18:33:02.859156 26199 net.cpp:137] Memory required for data: 191645652
I0807 18:33:02.859160 26199 layer_factory.hpp:77] Creating layer pool1
I0807 18:33:02.859166 26199 net.cpp:84] Creating Layer pool1
I0807 18:33:02.859169 26199 net.cpp:406] pool1 <- norm1
I0807 18:33:02.859174 26199 net.cpp:380] pool1 -> pool1
I0807 18:33:02.859205 26199 net.cpp:122] Setting up pool1
I0807 18:33:02.859210 26199 net.cpp:129] Top shape: 1 96 148 248 (3523584)
I0807 18:33:02.859213 26199 net.cpp:137] Memory required for data: 205739988
I0807 18:33:02.859216 26199 layer_factory.hpp:77] Creating layer conv2
I0807 18:33:02.859226 26199 net.cpp:84] Creating Layer conv2
I0807 18:33:02.859230 26199 net.cpp:406] conv2 <- pool1
I0807 18:33:02.859236 26199 net.cpp:380] conv2 -> conv2
I0807 18:33:02.861225 26199 net.cpp:122] Setting up conv2
I0807 18:33:02.861239 26199 net.cpp:129] Top shape: 1 256 73 123 (2298624)
I0807 18:33:02.861243 26199 net.cpp:137] Memory required for data: 214934484
I0807 18:33:02.861251 26199 layer_factory.hpp:77] Creating layer relu2
I0807 18:33:02.861258 26199 net.cpp:84] Creating Layer relu2
I0807 18:33:02.861260 26199 net.cpp:406] relu2 <- conv2
I0807 18:33:02.861264 26199 net.cpp:367] relu2 -> conv2 (in-place)
I0807 18:33:02.861573 26199 net.cpp:122] Setting up relu2
I0807 18:33:02.861584 26199 net.cpp:129] Top shape: 1 256 73 123 (2298624)
I0807 18:33:02.861588 26199 net.cpp:137] Memory required for data: 224128980
I0807 18:33:02.861591 26199 layer_factory.hpp:77] Creating layer norm2
I0807 18:33:02.861598 26199 net.cpp:84] Creating Layer norm2
I0807 18:33:02.861600 26199 net.cpp:406] norm2 <- conv2
I0807 18:33:02.861605 26199 net.cpp:380] norm2 -> norm2
I0807 18:33:02.861786 26199 net.cpp:122] Setting up norm2
I0807 18:33:02.861796 26199 net.cpp:129] Top shape: 1 256 73 123 (2298624)
I0807 18:33:02.861799 26199 net.cpp:137] Memory required for data: 233323476
I0807 18:33:02.861802 26199 layer_factory.hpp:77] Creating layer pool2
I0807 18:33:02.861807 26199 net.cpp:84] Creating Layer pool2
I0807 18:33:02.861810 26199 net.cpp:406] pool2 <- norm2
I0807 18:33:02.861816 26199 net.cpp:380] pool2 -> pool2
I0807 18:33:02.861845 26199 net.cpp:122] Setting up pool2
I0807 18:33:02.861850 26199 net.cpp:129] Top shape: 1 256 36 61 (562176)
I0807 18:33:02.861853 26199 net.cpp:137] Memory required for data: 235572180
I0807 18:33:02.861856 26199 layer_factory.hpp:77] Creating layer conv3
I0807 18:33:02.861863 26199 net.cpp:84] Creating Layer conv3
I0807 18:33:02.861866 26199 net.cpp:406] conv3 <- pool2
I0807 18:33:02.861871 26199 net.cpp:380] conv3 -> conv3
I0807 18:33:02.865847 26199 net.cpp:122] Setting up conv3
I0807 18:33:02.865864 26199 net.cpp:129] Top shape: 1 512 36 61 (1124352)
I0807 18:33:02.865866 26199 net.cpp:137] Memory required for data: 240069588
I0807 18:33:02.865877 26199 layer_factory.hpp:77] Creating layer relu3
I0807 18:33:02.865883 26199 net.cpp:84] Creating Layer relu3
I0807 18:33:02.865887 26199 net.cpp:406] relu3 <- conv3
I0807 18:33:02.865893 26199 net.cpp:367] relu3 -> conv3 (in-place)
I0807 18:33:02.866060 26199 net.cpp:122] Setting up relu3
I0807 18:33:02.866070 26199 net.cpp:129] Top shape: 1 512 36 61 (1124352)
I0807 18:33:02.866073 26199 net.cpp:137] Memory required for data: 244566996
I0807 18:33:02.866076 26199 layer_factory.hpp:77] Creating layer conv4
I0807 18:33:02.866083 26199 net.cpp:84] Creating Layer conv4
I0807 18:33:02.866087 26199 net.cpp:406] conv4 <- conv3
I0807 18:33:02.866091 26199 net.cpp:380] conv4 -> conv4
I0807 18:33:02.870025 26199 net.cpp:122] Setting up conv4
I0807 18:33:02.870043 26199 net.cpp:129] Top shape: 1 512 36 61 (1124352)
I0807 18:33:02.870045 26199 net.cpp:137] Memory required for data: 249064404
I0807 18:33:02.870054 26199 layer_factory.hpp:77] Creating layer relu4
I0807 18:33:02.870060 26199 net.cpp:84] Creating Layer relu4
I0807 18:33:02.870064 26199 net.cpp:406] relu4 <- conv4
I0807 18:33:02.870069 26199 net.cpp:367] relu4 -> conv4 (in-place)
I0807 18:33:02.870381 26199 net.cpp:122] Setting up relu4
I0807 18:33:02.870393 26199 net.cpp:129] Top shape: 1 512 36 61 (1124352)
I0807 18:33:02.870395 26199 net.cpp:137] Memory required for data: 253561812
I0807 18:33:02.870398 26199 layer_factory.hpp:77] Creating layer conv5
I0807 18:33:02.870409 26199 net.cpp:84] Creating Layer conv5
I0807 18:33:02.870414 26199 net.cpp:406] conv5 <- conv4
I0807 18:33:02.870419 26199 net.cpp:380] conv5 -> conv5
I0807 18:33:02.874356 26199 net.cpp:122] Setting up conv5
I0807 18:33:02.874372 26199 net.cpp:129] Top shape: 1 512 36 61 (1124352)
I0807 18:33:02.874375 26199 net.cpp:137] Memory required for data: 258059220
I0807 18:33:02.874387 26199 layer_factory.hpp:77] Creating layer relu5
I0807 18:33:02.874393 26199 net.cpp:84] Creating Layer relu5
I0807 18:33:02.874397 26199 net.cpp:406] relu5 <- conv5
I0807 18:33:02.874402 26199 net.cpp:367] relu5 -> conv5 (in-place)
I0807 18:33:02.874588 26199 net.cpp:122] Setting up relu5
I0807 18:33:02.874598 26199 net.cpp:129] Top shape: 1 512 36 61 (1124352)
I0807 18:33:02.874600 26199 net.cpp:137] Memory required for data: 262556628
I0807 18:33:02.874603 26199 layer_factory.hpp:77] Creating layer conv5_relu5_0_split
I0807 18:33:02.874610 26199 net.cpp:84] Creating Layer conv5_relu5_0_split
I0807 18:33:02.874614 26199 net.cpp:406] conv5_relu5_0_split <- conv5
I0807 18:33:02.874619 26199 net.cpp:380] conv5_relu5_0_split -> conv5_relu5_0_split_0
I0807 18:33:02.874624 26199 net.cpp:380] conv5_relu5_0_split -> conv5_relu5_0_split_1
I0807 18:33:02.874662 26199 net.cpp:122] Setting up conv5_relu5_0_split
I0807 18:33:02.874670 26199 net.cpp:129] Top shape: 1 512 36 61 (1124352)
I0807 18:33:02.874673 26199 net.cpp:129] Top shape: 1 512 36 61 (1124352)
I0807 18:33:02.874676 26199 net.cpp:137] Memory required for data: 271551444
I0807 18:33:02.874678 26199 layer_factory.hpp:77] Creating layer rpn_conv/3x3
I0807 18:33:02.874689 26199 net.cpp:84] Creating Layer rpn_conv/3x3
I0807 18:33:02.874693 26199 net.cpp:406] rpn_conv/3x3 <- conv5_relu5_0_split_0
I0807 18:33:02.874701 26199 net.cpp:380] rpn_conv/3x3 -> rpn/output
I0807 18:33:02.886359 26199 net.cpp:122] Setting up rpn_conv/3x3
I0807 18:33:02.886373 26199 net.cpp:129] Top shape: 1 256 36 61 (562176)
I0807 18:33:02.886376 26199 net.cpp:137] Memory required for data: 273800148
I0807 18:33:02.886384 26199 layer_factory.hpp:77] Creating layer rpn_relu/3x3
I0807 18:33:02.886389 26199 net.cpp:84] Creating Layer rpn_relu/3x3
I0807 18:33:02.886392 26199 net.cpp:406] rpn_relu/3x3 <- rpn/output
I0807 18:33:02.886399 26199 net.cpp:367] rpn_relu/3x3 -> rpn/output (in-place)
I0807 18:33:02.886590 26199 net.cpp:122] Setting up rpn_relu/3x3
I0807 18:33:02.886600 26199 net.cpp:129] Top shape: 1 256 36 61 (562176)
I0807 18:33:02.886602 26199 net.cpp:137] Memory required for data: 276048852
I0807 18:33:02.886605 26199 layer_factory.hpp:77] Creating layer rpn/output_rpn_relu/3x3_0_split
I0807 18:33:02.886611 26199 net.cpp:84] Creating Layer rpn/output_rpn_relu/3x3_0_split
I0807 18:33:02.886615 26199 net.cpp:406] rpn/output_rpn_relu/3x3_0_split <- rpn/output
I0807 18:33:02.886620 26199 net.cpp:380] rpn/output_rpn_relu/3x3_0_split -> rpn/output_rpn_relu/3x3_0_split_0
I0807 18:33:02.886626 26199 net.cpp:380] rpn/output_rpn_relu/3x3_0_split -> rpn/output_rpn_relu/3x3_0_split_1
I0807 18:33:02.886665 26199 net.cpp:122] Setting up rpn/output_rpn_relu/3x3_0_split
I0807 18:33:02.886672 26199 net.cpp:129] Top shape: 1 256 36 61 (562176)
I0807 18:33:02.886677 26199 net.cpp:129] Top shape: 1 256 36 61 (562176)
I0807 18:33:02.886678 26199 net.cpp:137] Memory required for data: 280546260
I0807 18:33:02.886682 26199 layer_factory.hpp:77] Creating layer rpn_cls_score
I0807 18:33:02.886690 26199 net.cpp:84] Creating Layer rpn_cls_score
I0807 18:33:02.886693 26199 net.cpp:406] rpn_cls_score <- rpn/output_rpn_relu/3x3_0_split_0
I0807 18:33:02.886700 26199 net.cpp:380] rpn_cls_score -> rpn_cls_score
I0807 18:33:02.887660 26199 net.cpp:122] Setting up rpn_cls_score
I0807 18:33:02.887670 26199 net.cpp:129] Top shape: 1 18 36 61 (39528)
I0807 18:33:02.887673 26199 net.cpp:137] Memory required for data: 280704372
I0807 18:33:02.887679 26199 layer_factory.hpp:77] Creating layer rpn_cls_score_rpn_cls_score_0_split
I0807 18:33:02.887686 26199 net.cpp:84] Creating Layer rpn_cls_score_rpn_cls_score_0_split
I0807 18:33:02.887691 26199 net.cpp:406] rpn_cls_score_rpn_cls_score_0_split <- rpn_cls_score
I0807 18:33:02.887696 26199 net.cpp:380] rpn_cls_score_rpn_cls_score_0_split -> rpn_cls_score_rpn_cls_score_0_split_0
I0807 18:33:02.887702 26199 net.cpp:380] rpn_cls_score_rpn_cls_score_0_split -> rpn_cls_score_rpn_cls_score_0_split_1
I0807 18:33:02.887737 26199 net.cpp:122] Setting up rpn_cls_score_rpn_cls_score_0_split
I0807 18:33:02.887744 26199 net.cpp:129] Top shape: 1 18 36 61 (39528)
I0807 18:33:02.887748 26199 net.cpp:129] Top shape: 1 18 36 61 (39528)
I0807 18:33:02.887750 26199 net.cpp:137] Memory required for data: 281020596
I0807 18:33:02.887753 26199 layer_factory.hpp:77] Creating layer rpn_bbox_pred
I0807 18:33:02.887763 26199 net.cpp:84] Creating Layer rpn_bbox_pred
I0807 18:33:02.887766 26199 net.cpp:406] rpn_bbox_pred <- rpn/output_rpn_relu/3x3_0_split_1
I0807 18:33:02.887773 26199 net.cpp:380] rpn_bbox_pred -> rpn_bbox_pred
I0807 18:33:02.888768 26199 net.cpp:122] Setting up rpn_bbox_pred
I0807 18:33:02.888792 26199 net.cpp:129] Top shape: 1 36 36 61 (79056)
I0807 18:33:02.888795 26199 net.cpp:137] Memory required for data: 281336820
I0807 18:33:02.888803 26199 layer_factory.hpp:77] Creating layer rpn_bbox_pred_rpn_bbox_pred_0_split
I0807 18:33:02.888809 26199 net.cpp:84] Creating Layer rpn_bbox_pred_rpn_bbox_pred_0_split
I0807 18:33:02.888813 26199 net.cpp:406] rpn_bbox_pred_rpn_bbox_pred_0_split <- rpn_bbox_pred
I0807 18:33:02.888831 26199 net.cpp:380] rpn_bbox_pred_rpn_bbox_pred_0_split -> rpn_bbox_pred_rpn_bbox_pred_0_split_0
I0807 18:33:02.888837 26199 net.cpp:380] rpn_bbox_pred_rpn_bbox_pred_0_split -> rpn_bbox_pred_rpn_bbox_pred_0_split_1
I0807 18:33:02.888873 26199 net.cpp:122] Setting up rpn_bbox_pred_rpn_bbox_pred_0_split
I0807 18:33:02.888880 26199 net.cpp:129] Top shape: 1 36 36 61 (79056)
I0807 18:33:02.888885 26199 net.cpp:129] Top shape: 1 36 36 61 (79056)
I0807 18:33:02.888887 26199 net.cpp:137] Memory required for data: 281969268
I0807 18:33:02.888890 26199 layer_factory.hpp:77] Creating layer rpn_cls_score_reshape
I0807 18:33:02.888897 26199 net.cpp:84] Creating Layer rpn_cls_score_reshape
I0807 18:33:02.888900 26199 net.cpp:406] rpn_cls_score_reshape <- rpn_cls_score_rpn_cls_score_0_split_0
I0807 18:33:02.888906 26199 net.cpp:380] rpn_cls_score_reshape -> rpn_cls_score_reshape
I0807 18:33:02.888931 26199 net.cpp:122] Setting up rpn_cls_score_reshape
I0807 18:33:02.888937 26199 net.cpp:129] Top shape: 1 2 324 61 (39528)
I0807 18:33:02.888941 26199 net.cpp:137] Memory required for data: 282127380
I0807 18:33:02.888943 26199 layer_factory.hpp:77] Creating layer rpn_cls_score_reshape_rpn_cls_score_reshape_0_split
I0807 18:33:02.888947 26199 net.cpp:84] Creating Layer rpn_cls_score_reshape_rpn_cls_score_reshape_0_split
I0807 18:33:02.888950 26199 net.cpp:406] rpn_cls_score_reshape_rpn_cls_score_reshape_0_split <- rpn_cls_score_reshape
I0807 18:33:02.888957 26199 net.cpp:380] rpn_cls_score_reshape_rpn_cls_score_reshape_0_split -> rpn_cls_score_reshape_rpn_cls_score_reshape_0_split_0
I0807 18:33:02.888962 26199 net.cpp:380] rpn_cls_score_reshape_rpn_cls_score_reshape_0_split -> rpn_cls_score_reshape_rpn_cls_score_reshape_0_split_1
I0807 18:33:02.888991 26199 net.cpp:122] Setting up rpn_cls_score_reshape_rpn_cls_score_reshape_0_split
I0807 18:33:02.888998 26199 net.cpp:129] Top shape: 1 2 324 61 (39528)
I0807 18:33:02.889003 26199 net.cpp:129] Top shape: 1 2 324 61 (39528)
I0807 18:33:02.889004 26199 net.cpp:137] Memory required for data: 282443604
I0807 18:33:02.889008 26199 layer_factory.hpp:77] Creating layer rpn-data
I0807 18:33:02.889408 26199 net.cpp:84] Creating Layer rpn-data
I0807 18:33:02.889417 26199 net.cpp:406] rpn-data <- rpn_cls_score_rpn_cls_score_0_split_1
I0807 18:33:02.889423 26199 net.cpp:406] rpn-data <- gt_boxes_input-data_2_split_0
I0807 18:33:02.889427 26199 net.cpp:406] rpn-data <- im_info_input-data_1_split_0
I0807 18:33:02.889431 26199 net.cpp:406] rpn-data <- data_input-data_0_split_1
I0807 18:33:02.889436 26199 net.cpp:380] rpn-data -> rpn_labels
I0807 18:33:02.889448 26199 net.cpp:380] rpn-data -> rpn_bbox_targets
I0807 18:33:02.889456 26199 net.cpp:380] rpn-data -> rpn_bbox_inside_weights
I0807 18:33:02.889463 26199 net.cpp:380] rpn-data -> rpn_bbox_outside_weights
I0807 18:33:02.890740 26199 net.cpp:122] Setting up rpn-data
I0807 18:33:02.890754 26199 net.cpp:129] Top shape: 1 1 324 61 (19764)
I0807 18:33:02.890758 26199 net.cpp:129] Top shape: 1 36 36 61 (79056)
I0807 18:33:02.890763 26199 net.cpp:129] Top shape: 1 36 36 61 (79056)
I0807 18:33:02.890765 26199 net.cpp:129] Top shape: 1 36 36 61 (79056)
I0807 18:33:02.890769 26199 net.cpp:137] Memory required for data: 283471332
I0807 18:33:02.890771 26199 layer_factory.hpp:77] Creating layer rpn_loss_cls
I0807 18:33:02.890779 26199 net.cpp:84] Creating Layer rpn_loss_cls
I0807 18:33:02.890782 26199 net.cpp:406] rpn_loss_cls <- rpn_cls_score_reshape_rpn_cls_score_reshape_0_split_0
I0807 18:33:02.890787 26199 net.cpp:406] rpn_loss_cls <- rpn_labels
…
I0807 18:33:02.891961 26199 net.cpp:129] Top shape: (1)
I0807 18:33:02.891963 26199 net.cpp:132]     with loss weight 1
I0807 18:33:02.891968 26199 net.cpp:137] Memory required for data: 283471340
I0807 18:33:02.891970 26199 layer_factory.hpp:77] Creating layer rpn_cls_prob
I0807 18:33:02.891978 26199 net.cpp:84] Creating Layer rpn_cls_prob
I0807 18:33:02.891980 26199 net.cpp:406] rpn_cls_prob <- rpn_cls_score_reshape_rpn_cls_score_reshape_0_split_1
I0807 18:33:02.891984 26199 net.cpp:380] rpn_cls_prob -> rpn_cls_prob
I0807 18:33:02.892374 26199 net.cpp:122] Setting up rpn_cls_prob
I0807 18:33:02.892386 26199 net.cpp:129] Top shape: 1 2 324 61 (39528)
I0807 18:33:02.892390 26199 net.cpp:137] Memory required for data: 283629452
I0807 18:33:02.892392 26199 layer_factory.hpp:77] Creating layer rpn_cls_prob_reshape
I0807 18:33:02.892405 26199 net.cpp:84] Creating Layer rpn_cls_prob_reshape
I0807 18:33:02.892408 26199 net.cpp:406] rpn_cls_prob_reshape <- rpn_cls_prob
I0807 18:33:02.892413 26199 net.cpp:380] rpn_cls_prob_reshape -> rpn_cls_prob_reshape
I0807 18:33:02.892438 26199 net.cpp:122] Setting up rpn_cls_prob_reshape
I0807 18:33:02.892443 26199 net.cpp:129] Top shape: 1 18 36 61 (39528)
I0807 18:33:02.892446 26199 net.cpp:137] Memory required for data: 283787564
I0807 18:33:02.892448 26199 layer_factory.hpp:77] Creating layer proposal
I0807 18:33:02.893131 26199 net.cpp:84] Creating Layer proposal
I0807 18:33:02.893141 26199 net.cpp:406] proposal <- rpn_cls_prob_reshape
I0807 18:33:02.893146 26199 net.cpp:406] proposal <- rpn_bbox_pred_rpn_bbox_pred_0_split_1
I0807 18:33:02.893149 26199 net.cpp:406] proposal <- im_info_input-data_1_split_1
I0807 18:33:02.893154 26199 net.cpp:380] proposal -> rpn_rois
I0807 18:33:02.893767 26199 net.cpp:122] Setting up proposal
I0807 18:33:02.893779 26199 net.cpp:129] Top shape: 1 5 (5)
I0807 18:33:02.893782 26199 net.cpp:137] Memory required for data: 283787584
I0807 18:33:02.893785 26199 layer_factory.hpp:77] Creating layer roi-data
I0807 18:33:02.893918 26199 net.cpp:84] Creating Layer roi-data
I0807 18:33:02.893926 26199 net.cpp:406] roi-data <- rpn_rois
I0807 18:33:02.893932 26199 net.cpp:406] roi-data <- gt_boxes_input-data_2_split_1
I0807 18:33:02.893937 26199 net.cpp:380] roi-data -> rois
I0807 18:33:02.893944 26199 net.cpp:380] roi-data -> labels
I0807 18:33:02.893950 26199 net.cpp:380] roi-data -> bbox_targets
I0807 18:33:02.893956 26199 net.cpp:380] roi-data -> bbox_inside_weights
I0807 18:33:02.893961 26199 net.cpp:380] roi-data -> bbox_outside_weights
I0807 18:33:02.894300 26199 net.cpp:122] Setting up roi-data
I0807 18:33:02.894312 26199 net.cpp:129] Top shape: 1 5 (5)
I0807 18:33:02.894315 26199 net.cpp:129] Top shape: 1 1 (1)
I0807 18:33:02.894320 26199 net.cpp:129] Top shape: 1 1068 (1068)
I0807 18:33:02.894322 26199 net.cpp:129] Top shape: 1 1068 (1068)
I0807 18:33:02.894325 26199 net.cpp:129] Top shape: 1 1068 (1068)
I0807 18:33:02.894328 26199 net.cpp:137] Memory required for data: 283800424
I0807 18:33:02.894331 26199 layer_factory.hpp:77] Creating layer roi_pool5
I0807 18:33:02.894337 26199 net.cpp:84] Creating Layer roi_pool5
I0807 18:33:02.894341 26199 net.cpp:406] roi_pool5 <- conv5_relu5_0_split_1
I0807 18:33:02.894346 26199 net.cpp:406] roi_pool5 <- rois
I0807 18:33:02.894351 26199 net.cpp:380] roi_pool5 -> pool5
I0807 18:33:02.894356 26199 roi_pooling_layer.cpp:30] Spatial scale: 0.0625
I0807 18:33:02.894393 26199 net.cpp:122] Setting up roi_pool5
I0807 18:33:02.894400 26199 net.cpp:129] Top shape: 1 512 6 6 (18432)
I0807 18:33:02.894403 26199 net.cpp:137] Memory required for data: 283874152
I0807 18:33:02.894407 26199 layer_factory.hpp:77] Creating layer fc6
I0807 18:33:02.894412 26199 net.cpp:84] Creating Layer fc6
I0807 18:33:02.894415 26199 net.cpp:406] fc6 <- pool5
I0807 18:33:02.894423 26199 net.cpp:380] fc6 -> fc6
I0807 18:33:03.035239 26199 net.cpp:122] Setting up fc6
I0807 18:33:03.035271 26199 net.cpp:129] Top shape: 1 4096 (4096)
I0807 18:33:03.035274 26199 net.cpp:137] Memory required for data: 283890536
I0807 18:33:03.035293 26199 layer_factory.hpp:77] Creating layer relu6
I0807 18:33:03.035305 26199 net.cpp:84] Creating Layer relu6
I0807 18:33:03.035310 26199 net.cpp:406] relu6 <- fc6
I0807 18:33:03.035316 26199 net.cpp:367] relu6 -> fc6 (in-place)
I0807 18:33:03.035567 26199 net.cpp:122] Setting up relu6
I0807 18:33:03.035576 26199 net.cpp:129] Top shape: 1 4096 (4096)
I0807 18:33:03.035579 26199 net.cpp:137] Memory required for data: 283906920
I0807 18:33:03.035583 26199 layer_factory.hpp:77] Creating layer drop6
I0807 18:33:03.035591 26199 net.cpp:84] Creating Layer drop6
I0807 18:33:03.035594 26199 net.cpp:406] drop6 <- fc6
I0807 18:33:03.035599 26199 net.cpp:367] drop6 -> fc6 (in-place)
I0807 18:33:03.035626 26199 net.cpp:122] Setting up drop6
I0807 18:33:03.035632 26199 net.cpp:129] Top shape: 1 4096 (4096)
I0807 18:33:03.035634 26199 net.cpp:137] Memory required for data: 283923304
I0807 18:33:03.035637 26199 layer_factory.hpp:77] Creating layer fc7
I0807 18:33:03.035643 26199 net.cpp:84] Creating Layer fc7
I0807 18:33:03.035646 26199 net.cpp:406] fc7 <- fc6
I0807 18:33:03.035652 26199 net.cpp:380] fc7 -> fc7
I0807 18:33:03.042523 26199 net.cpp:122] Setting up fc7
I0807 18:33:03.042551 26199 net.cpp:129] Top shape: 1 1024 (1024)
I0807 18:33:03.042553 26199 net.cpp:137] Memory required for data: 283927400
I0807 18:33:03.042563 26199 layer_factory.hpp:77] Creating layer relu7
I0807 18:33:03.042574 26199 net.cpp:84] Creating Layer relu7
I0807 18:33:03.042580 26199 net.cpp:406] relu7 <- fc7
I0807 18:33:03.042587 26199 net.cpp:367] relu7 -> fc7 (in-place)
I0807 18:33:03.042827 26199 net.cpp:122] Setting up relu7
I0807 18:33:03.042837 26199 net.cpp:129] Top shape: 1 1024 (1024)
I0807 18:33:03.042840 26199 net.cpp:137] Memory required for data: 283931496
I0807 18:33:03.042843 26199 layer_factory.hpp:77] Creating layer drop7
I0807 18:33:03.042850 26199 net.cpp:84] Creating Layer drop7
I0807 18:33:03.042855 26199 net.cpp:406] drop7 <- fc7
I0807 18:33:03.042858 26199 net.cpp:367] drop7 -> fc7 (in-place)
I0807 18:33:03.042886 26199 net.cpp:122] Setting up drop7
I0807 18:33:03.042891 26199 net.cpp:129] Top shape: 1 1024 (1024)
I0807 18:33:03.042894 26199 net.cpp:137] Memory required for data: 283935592
I0807 18:33:03.042897 26199 layer_factory.hpp:77] Creating layer fc7_drop7_0_split
I0807 18:33:03.042903 26199 net.cpp:84] Creating Layer fc7_drop7_0_split
I0807 18:33:03.042906 26199 net.cpp:406] fc7_drop7_0_split <- fc7
I0807 18:33:03.042912 26199 net.cpp:380] fc7_drop7_0_split -> fc7_drop7_0_split_0
I0807 18:33:03.042917 26199 net.cpp:380] fc7_drop7_0_split -> fc7_drop7_0_split_1
I0807 18:33:03.042951 26199 net.cpp:122] Setting up fc7_drop7_0_split
I0807 18:33:03.042958 26199 net.cpp:129] Top shape: 1 1024 (1024)
I0807 18:33:03.042961 26199 net.cpp:129] Top shape: 1 1024 (1024)
I0807 18:33:03.042963 26199 net.cpp:137] Memory required for data: 283943784
I0807 18:33:03.042966 26199 layer_factory.hpp:77] Creating layer cls_score
I0807 18:33:03.042973 26199 net.cpp:84] Creating Layer cls_score
I0807 18:33:03.042976 26199 net.cpp:406] cls_score <- fc7_drop7_0_split_0
I0807 18:33:03.042982 26199 net.cpp:380] cls_score -> cls_score
I0807 18:33:03.045310 26199 net.cpp:122] Setting up cls_score
I0807 18:33:03.045318 26199 net.cpp:129] Top shape: 1 267 (267)
I0807 18:33:03.045321 26199 net.cpp:137] Memory required for data: 283944852
I0807 18:33:03.045327 26199 layer_factory.hpp:77] Creating layer bbox_pred
I0807 18:33:03.045333 26199 net.cpp:84] Creating Layer bbox_pred
I0807 18:33:03.045336 26199 net.cpp:406] bbox_pred <- fc7_drop7_0_split_1
I0807 18:33:03.045342 26199 net.cpp:380] bbox_pred -> bbox_pred
I0807 18:33:03.055384 26199 net.cpp:122] Setting up bbox_pred
I0807 18:33:03.055395 26199 net.cpp:129] Top shape: 1 1068 (1068)
I0807 18:33:03.055398 26199 net.cpp:137] Memory required for data: 283949124
I0807 18:33:03.055404 26199 layer_factory.hpp:77] Creating layer loss_cls
I0807 18:33:03.055411 26199 net.cpp:84] Creating Layer loss_cls
I0807 18:33:03.055415 26199 net.cpp:406] loss_cls <- cls_score
I0807 18:33:03.055420 26199 net.cpp:406] loss_cls <- labels
I0807 18:33:03.055425 26199 net.cpp:380] loss_cls -> loss_cls
…
I0807 20:04:05.533735 26392 upgrade_proto.cpp:72] Successfully upgraded file specified using deprecated input fields.
W0807 20:04:05.533738 26392 upgrade_proto.cpp:74] Note that future Caffe releases will only support input layers and not input fields.
I0807 20:04:05.533936 26392 net.cpp:51] Initializing net from parameters: 
name: "VGG_CNN_M_1024"
state {
  phase: TEST
  level: 0
}
layer {
  name: "input"
  type: "Input"
  top: "data"
  top: "im_info"
  input_param {
    shape {
      dim: 1
      dim: 3
      dim: 224
      dim: 224
    }
    shape {
      dim: 1
      dim: 3
    }
  }
}
layer {
  name: "conv1"
  type: "Convolution"
  bottom: "data"
  top: "conv1"
  param {
    lr_mult: 0
    decay_mult: 0
  }
  param {
    lr_mult: 0
    decay_mult: 0
  }
  convolution_param {
    num_output: 96
    kernel_size: 7
    stride: 2
  }
}
layer {
  name: "relu1"
  type: "ReLU"
  bottom: "conv1"
  top: "conv1"
}
layer {
  name: "norm1"
  type: "LRN"
  bottom: "conv1"
  top: "norm1"
  lrn_param {
    local_size: 5
    alpha: 0.0005
    beta: 0.75
    k: 2
  }
}
layer {
  name: "pool1"
  type: "Pooling"
  bottom: "norm1"
  top: "pool1"
  pooling_param {
    pool: MAX
    kernel_size: 3
    stride: 2
  }
}
layer {
  name: "conv2"
  type: "Convolution"
  bottom: "pool1"
  top: "conv2"
  param {
    lr_mult: 1
    decay_mult: 1
  }
  param {
    lr_mult: 2
    decay_mult: 0
  }
  convolution_param {
    num_output: 256
    pad: 1
    kernel_size: 5
    stride: 2
  }
}
layer {
  name: "relu2"
  type: "ReLU"
  bottom: "conv2"
  top: "conv2"
}
layer {
  name: "norm2"
  type: "LRN"
  bottom: "conv2"
  top: "norm2"
  lrn_param {
    local_size: 5
    alpha: 0.0005
    beta: 0.75
    k: 2
  }
}
layer {
  name: "pool2"
  type: "Pooling"
  bottom: "norm2"
  top: "pool2"
  pooling_param {
    pool: MAX
    kernel_size: 3
    stride: 2
  }
}
layer {
  name: "conv3"
  type: "Convolution"
  bottom: "pool2"
  top: "conv3"
  param {
    lr_mult: 1
    decay_mult: 1
  }
  param {
    lr_mult: 2
    decay_mult: 0
  }
  convolution_param {
    num_output: 512
    pad: 1
    kernel_size: 3
  }
}
layer {
  name: "relu3"
  type: "ReLU"
  bottom: "conv3"
  top: "conv3"
}
layer {
  name: "conv4"
  type: "Convolution"
  bottom: "conv3"
  top: "conv4"
  param {
    lr_mult: 1
    decay_mult: 1
  }
  param {
    lr_mult: 2
    decay_mult: 0
  }
  convolution_param {
    num_output: 512
    pad: 1
    kernel_size: 3
  }
}
layer {
  name: "relu4"
  type: "ReLU"
  bottom: "conv4"
  top: "conv4"
}
layer {
  name: "conv5"
  type: "Convolution"
  bottom: "conv4"
  top: "conv5"
  param {
    lr_mult: 1
    decay_mult: 1
  }
  param {
    lr_mult: 2
    decay_mult: 0
  }
  convolution_param {
    num_output: 512
    pad: 1
    kernel_size: 3
  }
}
layer {
  name: "relu5"
  type: "ReLU"
  bottom: "conv5"
  top: "conv5"
}
layer {
  name: "rpn_conv/3x3"
  type: "Convolution"
  bottom: "conv5"
  top: "rpn/output"
  param {
    lr_mult: 1
    decay_mult: 1
  }
  param {
    lr_mult: 2
    decay_mult: 0
  }
  convolution_param {
    num_output: 256
    pad: 1
    kernel_size: 3
    stride: 1
    weight_filler {
      type: "gaussian"
      std: 0.01
    }
    bias_filler {
      type: "constant"
      value: 0
    }
  }
}
layer {
  name: "rpn_relu/3x3"
  type: "ReLU"
  bottom: "rpn/output"
  top: "rpn/output"
}
layer {
  name: "rpn_cls_score"
  type: "Convolution"
  bottom: "rpn/output"
  top: "rpn_cls_score"
  param {
    lr_mult: 1
    decay_mult: 1
  }
  param {
    lr_mult: 2
    decay_mult: 0
  }
  convolution_param {
    num_output: 18
    pad: 0
    kernel_size: 1
    stride: 1
    weight_filler {
      type: "gaussian"
      std: 0.01
    }
    bias_filler {
      type: "constant"
      value: 0
    }
  }
}
layer {
  name: "rpn_bbox_pred"
  type: "Convolution"
  bottom: "rpn/output"
  top: "rpn_bbox_pred"
  param {
    lr_mult: 1
    decay_mult: 1
  }
  param {
    lr_mult: 2
    decay_mult: 0
  }
  convolution_param {
    num_output: 36
    pad: 0
    kernel_size: 1
    stride: 1
    weight_filler {
      type: "gaussian"
      std: 0.01
    }
    bias_filler {
      type: "constant"
      value: 0
    }
  }
}
layer {
  name: "rpn_cls_score_reshape"
  type: "Reshape"
  bottom: "rpn_cls_score"
  top: "rpn_cls_score_reshape"
  reshape_param {
    shape {
      dim: 0
      dim: 2
      dim: -1
      dim: 0
    }
  }
}
layer {
  name: "rpn_cls_prob"
  type: "Softmax"
  bottom: "rpn_cls_score_reshape"
  top: "rpn_cls_prob"
}
layer {
  name: "rpn_cls_prob_reshape"
  type: "Reshape"
  bottom: "rpn_cls_prob"
  top: "rpn_cls_prob_reshape"
  reshape_param {
    shape {
      dim: 0
      dim: 18
      dim: -1
      dim: 0
    }
  }
}
layer {
  name: "proposal"
  type: "Python"
  bottom: "rpn_cls_prob_reshape"
  bottom: "rpn_bbox_pred"
  bottom: "im_info"
  top: "rois"
  python_param {
    module: "rpn.proposal_layer"
    layer: "ProposalLayer"
    param_str: "\'feat_stride\': 16"
  }
}
layer {
  name: "roi_pool5"
  type: "ROIPooling"
  bottom: "conv5"
  bottom: "rois"
  top: "pool5"
  roi_pooling_param {
    pooled_h: 6
    pooled_w: 6
    spatial_scale: 0.0625
  }
}
layer {
  name: "fc6"
  type: "InnerProduct"
  bottom: "pool5"
  top: "fc6"
  param {
    lr_mult: 1
    decay_mult: 1
  }
  param {
    lr_mult: 2
    decay_mult: 0
  }
  inner_product_param {
    num_output: 4096
  }
}
layer {
  name: "relu6"
  type: "ReLU"
  bottom: "fc6"
  top: "fc6"
}
layer {
  name: "drop6"
  type: "Dropout"
  bottom: "fc6"
  top: "fc6"
  dropout_param {
    dropout_ratio: 0.5
  }
}
layer {
  name: "fc7"
  type: "InnerProduct"
  bottom: "fc6"
  top: "fc7"
  param {
    lr_mult: 1
    decay_mult: 1
  }
  param {
    lr_mult: 2
    decay_mult: 0
  }
  inner_product_param {
    num_output: 1024
  }
}
layer {
  name: "relu7"
  type: "ReLU"
  bottom: "fc7"
  top: "fc7"
}
layer {
  name: "drop7"
  type: "Dropout"
  bottom: "fc7"
  top: "fc7"
  dropout_param {
    dropout_ratio: 0.5
  }
}
layer {
  name: "cls_score"
  type: "InnerProduct"
  bottom: "fc7"
  top: "cls_score"
  param {
    lr_mult: 1
    decay_mult: 1
  }
  param {
    lr_mult: 2
    decay_mult: 0
  }
  inner_product_param {
    num_output: 267
    weight_filler {
      type: "gaussian"
      std: 0.01
    }
    bias_filler {
      type: "constant"
      value: 0
    }
  }
}
layer {
  name: "bbox_pred"
  type: "InnerProduct"
  bottom: "fc7"
  top: "bbox_pred"
  param {
    lr_mult: 1
    decay_mult: 1
  }
  param {
    lr_mult: 2
    decay_mult: 0
  }
  inner_product_param {
    num_output: 1068
    weight_filler {
      type: "gaussian"
      std: 0.001
    }
    bias_filler {
      type: "constant"
      value: 0
    }
  }
}
layer {
  name: "cls_prob"
  type: "Softmax"
  bottom: "cls_score"
  top: "cls_prob"
}
I0807 20:04:05.534049 26392 layer_factory.hpp:77] Creating layer input
I0807 20:04:05.534059 26392 net.cpp:84] Creating Layer input
I0807 20:04:05.534062 26392 net.cpp:380] input -> data
I0807 20:04:05.534072 26392 net.cpp:380] input -> im_info
I0807 20:04:05.542372 26392 net.cpp:122] Setting up input
I0807 20:04:05.542388 26392 net.cpp:129] Top shape: 1 3 224 224 (150528)
I0807 20:04:05.542393 26392 net.cpp:129] Top shape: 1 3 (3)
I0807 20:04:05.542395 26392 net.cpp:137] Memory required for data: 602124
I0807 20:04:05.542400 26392 layer_factory.hpp:77] Creating layer conv1
I0807 20:04:05.542418 26392 net.cpp:84] Creating Layer conv1
I0807 20:04:05.542420 26392 net.cpp:406] conv1 <- data
I0807 20:04:05.542426 26392 net.cpp:380] conv1 -> conv1
I0807 20:04:05.992699 26392 net.cpp:122] Setting up conv1
I0807 20:04:05.992732 26392 net.cpp:129] Top shape: 1 96 109 109 (1140576)
I0807 20:04:05.992735 26392 net.cpp:137] Memory required for data: 5164428
I0807 20:04:05.992751 26392 layer_factory.hpp:77] Creating layer relu1
I0807 20:04:05.992763 26392 net.cpp:84] Creating Layer relu1
I0807 20:04:05.992768 26392 net.cpp:406] relu1 <- conv1
I0807 20:04:05.992774 26392 net.cpp:367] relu1 -> conv1 (in-place)
I0807 20:04:05.992935 26392 net.cpp:122] Setting up relu1
I0807 20:04:05.992945 26392 net.cpp:129] Top shape: 1 96 109 109 (1140576)
I0807 20:04:05.992947 26392 net.cpp:137] Memory required for data: 9726732
I0807 20:04:05.992950 26392 layer_factory.hpp:77] Creating layer norm1
I0807 20:04:05.992959 26392 net.cpp:84] Creating Layer norm1
I0807 20:04:05.992961 26392 net.cpp:406] norm1 <- conv1
I0807 20:04:05.992965 26392 net.cpp:380] norm1 -> norm1
I0807 20:04:05.993139 26392 net.cpp:122] Setting up norm1
I0807 20:04:05.993149 26392 net.cpp:129] Top shape: 1 96 109 109 (1140576)
I0807 20:04:05.993152 26392 net.cpp:137] Memory required for data: 14289036
I0807 20:04:05.993155 26392 layer_factory.hpp:77] Creating layer pool1
I0807 20:04:05.993162 26392 net.cpp:84] Creating Layer pool1
I0807 20:04:05.993165 26392 net.cpp:406] pool1 <- norm1
I0807 20:04:05.993170 26392 net.cpp:380] pool1 -> pool1
I0807 20:04:05.993201 26392 net.cpp:122] Setting up pool1
I0807 20:04:05.993208 26392 net.cpp:129] Top shape: 1 96 54 54 (279936)
I0807 20:04:05.993211 26392 net.cpp:137] Memory required for data: 15408780
I0807 20:04:05.993214 26392 layer_factory.hpp:77] Creating layer conv2
I0807 20:04:05.993221 26392 net.cpp:84] Creating Layer conv2
I0807 20:04:05.993224 26392 net.cpp:406] conv2 <- pool1
I0807 20:04:05.993228 26392 net.cpp:380] conv2 -> conv2
I0807 20:04:05.995853 26392 net.cpp:122] Setting up conv2
I0807 20:04:05.995867 26392 net.cpp:129] Top shape: 1 256 26 26 (173056)
I0807 20:04:05.995870 26392 net.cpp:137] Memory required for data: 16101004
I0807 20:04:05.995880 26392 layer_factory.hpp:77] Creating layer relu2
I0807 20:04:05.995885 26392 net.cpp:84] Creating Layer relu2
I0807 20:04:05.995889 26392 net.cpp:406] relu2 <- conv2
I0807 20:04:05.995895 26392 net.cpp:367] relu2 -> conv2 (in-place)
I0807 20:04:05.996201 26392 net.cpp:122] Setting up relu2
I0807 20:04:05.996212 26392 net.cpp:129] Top shape: 1 256 26 26 (173056)
I0807 20:04:05.996215 26392 net.cpp:137] Memory required for data: 16793228
I0807 20:04:05.996218 26392 layer_factory.hpp:77] Creating layer norm2
I0807 20:04:05.996225 26392 net.cpp:84] Creating Layer norm2
I0807 20:04:05.996228 26392 net.cpp:406] norm2 <- conv2
I0807 20:04:05.996232 26392 net.cpp:380] norm2 -> norm2
I0807 20:04:05.996417 26392 net.cpp:122] Setting up norm2
I0807 20:04:05.996428 26392 net.cpp:129] Top shape: 1 256 26 26 (173056)
I0807 20:04:05.996430 26392 net.cpp:137] Memory required for data: 17485452
I0807 20:04:05.996433 26392 layer_factory.hpp:77] Creating layer pool2
I0807 20:04:05.996439 26392 net.cpp:84] Creating Layer pool2
I0807 20:04:05.996443 26392 net.cpp:406] pool2 <- norm2
I0807 20:04:05.996446 26392 net.cpp:380] pool2 -> pool2
I0807 20:04:05.996477 26392 net.cpp:122] Setting up pool2
I0807 20:04:05.996484 26392 net.cpp:129] Top shape: 1 256 13 13 (43264)
I0807 20:04:05.996487 26392 net.cpp:137] Memory required for data: 17658508
I0807 20:04:05.996490 26392 layer_factory.hpp:77] Creating layer conv3
I0807 20:04:05.996496 26392 net.cpp:84] Creating Layer conv3
I0807 20:04:05.996500 26392 net.cpp:406] conv3 <- pool2
I0807 20:04:05.996503 26392 net.cpp:380] conv3 -> conv3
I0807 20:04:05.999203 26392 net.cpp:122] Setting up conv3
I0807 20:04:05.999217 26392 net.cpp:129] Top shape: 1 512 13 13 (86528)
I0807 20:04:05.999220 26392 net.cpp:137] Memory required for data: 18004620
I0807 20:04:05.999229 26392 layer_factory.hpp:77] Creating layer relu3
I0807 20:04:05.999235 26392 net.cpp:84] Creating Layer relu3
I0807 20:04:05.999238 26392 net.cpp:406] relu3 <- conv3
I0807 20:04:05.999243 26392 net.cpp:367] relu3 -> conv3 (in-place)
I0807 20:04:05.999408 26392 net.cpp:122] Setting up relu3
I0807 20:04:05.999416 26392 net.cpp:129] Top shape: 1 512 13 13 (86528)
I0807 20:04:05.999419 26392 net.cpp:137] Memory required for data: 18350732
I0807 20:04:05.999423 26392 layer_factory.hpp:77] Creating layer conv4
I0807 20:04:05.999430 26392 net.cpp:84] Creating Layer conv4
I0807 20:04:05.999433 26392 net.cpp:406] conv4 <- conv3
I0807 20:04:05.999438 26392 net.cpp:380] conv4 -> conv4
I0807 20:04:06.003589 26392 net.cpp:122] Setting up conv4
I0807 20:04:06.003607 26392 net.cpp:129] Top shape: 1 512 13 13 (86528)
I0807 20:04:06.003612 26392 net.cpp:137] Memory required for data: 18696844
I0807 20:04:06.003619 26392 layer_factory.hpp:77] Creating layer relu4
I0807 20:04:06.003625 26392 net.cpp:84] Creating Layer relu4
I0807 20:04:06.003629 26392 net.cpp:406] relu4 <- conv4
I0807 20:04:06.003634 26392 net.cpp:367] relu4 -> conv4 (in-place)
I0807 20:04:06.003934 26392 net.cpp:122] Setting up relu4
I0807 20:04:06.003947 26392 net.cpp:129] Top shape: 1 512 13 13 (86528)
I0807 20:04:06.003949 26392 net.cpp:137] Memory required for data: 19042956
I0807 20:04:06.003952 26392 layer_factory.hpp:77] Creating layer conv5
I0807 20:04:06.003960 26392 net.cpp:84] Creating Layer conv5
I0807 20:04:06.003963 26392 net.cpp:406] conv5 <- conv4
I0807 20:04:06.003968 26392 net.cpp:380] conv5 -> conv5
I0807 20:04:06.008132 26392 net.cpp:122] Setting up conv5
I0807 20:04:06.008150 26392 net.cpp:129] Top shape: 1 512 13 13 (86528)
I0807 20:04:06.008153 26392 net.cpp:137] Memory required for data: 19389068
I0807 20:04:06.008165 26392 layer_factory.hpp:77] Creating layer relu5
I0807 20:04:06.008172 26392 net.cpp:84] Creating Layer relu5
I0807 20:04:06.008175 26392 net.cpp:406] relu5 <- conv5
I0807 20:04:06.008179 26392 net.cpp:367] relu5 -> conv5 (in-place)
I0807 20:04:06.008355 26392 net.cpp:122] Setting up relu5
I0807 20:04:06.008365 26392 net.cpp:129] Top shape: 1 512 13 13 (86528)
I0807 20:04:06.008368 26392 net.cpp:137] Memory required for data: 19735180
I0807 20:04:06.008371 26392 layer_factory.hpp:77] Creating layer conv5_relu5_0_split
I0807 20:04:06.008383 26392 net.cpp:84] Creating Layer conv5_relu5_0_split
I0807 20:04:06.008388 26392 net.cpp:406] conv5_relu5_0_split <- conv5
I0807 20:04:06.008393 26392 net.cpp:380] conv5_relu5_0_split -> conv5_relu5_0_split_0
I0807 20:04:06.008399 26392 net.cpp:380] conv5_relu5_0_split -> conv5_relu5_0_split_1
I0807 20:04:06.008436 26392 net.cpp:122] Setting up conv5_relu5_0_split
I0807 20:04:06.008442 26392 net.cpp:129] Top shape: 1 512 13 13 (86528)
I0807 20:04:06.008446 26392 net.cpp:129] Top shape: 1 512 13 13 (86528)
I0807 20:04:06.008450 26392 net.cpp:137] Memory required for data: 20427404
I0807 20:04:06.008451 26392 layer_factory.hpp:77] Creating layer rpn_conv/3x3
I0807 20:04:06.008462 26392 net.cpp:84] Creating Layer rpn_conv/3x3
I0807 20:04:06.008466 26392 net.cpp:406] rpn_conv/3x3 <- conv5_relu5_0_split_0
I0807 20:04:06.008471 26392 net.cpp:380] rpn_conv/3x3 -> rpn/output
I0807 20:04:06.020401 26392 net.cpp:122] Setting up rpn_conv/3x3
I0807 20:04:06.020414 26392 net.cpp:129] Top shape: 1 256 13 13 (43264)
I0807 20:04:06.020417 26392 net.cpp:137] Memory required for data: 20600460
I0807 20:04:06.020424 26392 layer_factory.hpp:77] Creating layer rpn_relu/3x3
I0807 20:04:06.020431 26392 net.cpp:84] Creating Layer rpn_relu/3x3
I0807 20:04:06.020433 26392 net.cpp:406] rpn_relu/3x3 <- rpn/output
I0807 20:04:06.020438 26392 net.cpp:367] rpn_relu/3x3 -> rpn/output (in-place)
I0807 20:04:06.020640 26392 net.cpp:122] Setting up rpn_relu/3x3
I0807 20:04:06.020650 26392 net.cpp:129] Top shape: 1 256 13 13 (43264)
I0807 20:04:06.020654 26392 net.cpp:137] Memory required for data: 20773516
I0807 20:04:06.020658 26392 layer_factory.hpp:77] Creating layer rpn/output_rpn_relu/3x3_0_split
I0807 20:04:06.020663 26392 net.cpp:84] Creating Layer rpn/output_rpn_relu/3x3_0_split
I0807 20:04:06.020666 26392 net.cpp:406] rpn/output_rpn_relu/3x3_0_split <- rpn/output
I0807 20:04:06.020671 26392 net.cpp:380] rpn/output_rpn_relu/3x3_0_split -> rpn/output_rpn_relu/3x3_0_split_0
I0807 20:04:06.020678 26392 net.cpp:380] rpn/output_rpn_relu/3x3_0_split -> rpn/output_rpn_relu/3x3_0_split_1
I0807 20:04:06.020717 26392 net.cpp:122] Setting up rpn/output_rpn_relu/3x3_0_split
I0807 20:04:06.020725 26392 net.cpp:129] Top shape: 1 256 13 13 (43264)
I0807 20:04:06.020728 26392 net.cpp:129] Top shape: 1 256 13 13 (43264)
I0807 20:04:06.020731 26392 net.cpp:137] Memory required for data: 21119628
I0807 20:04:06.020735 26392 layer_factory.hpp:77] Creating layer rpn_cls_score
I0807 20:04:06.020743 26392 net.cpp:84] Creating Layer rpn_cls_score
I0807 20:04:06.020746 26392 net.cpp:406] rpn_cls_score <- rpn/output_rpn_relu/3x3_0_split_0
I0807 20:04:06.020752 26392 net.cpp:380] rpn_cls_score -> rpn_cls_score
I0807 20:04:06.021793 26392 net.cpp:122] Setting up rpn_cls_score
I0807 20:04:06.021806 26392 net.cpp:129] Top shape: 1 18 13 13 (3042)
I0807 20:04:06.021809 26392 net.cpp:137] Memory required for data: 21131796
I0807 20:04:06.021816 26392 layer_factory.hpp:77] Creating layer rpn_bbox_pred
I0807 20:04:06.021824 26392 net.cpp:84] Creating Layer rpn_bbox_pred
I0807 20:04:06.021827 26392 net.cpp:406] rpn_bbox_pred <- rpn/output_rpn_relu/3x3_0_split_1
I0807 20:04:06.021833 26392 net.cpp:380] rpn_bbox_pred -> rpn_bbox_pred
I0807 20:04:06.022768 26392 net.cpp:122] Setting up rpn_bbox_pred
I0807 20:04:06.022779 26392 net.cpp:129] Top shape: 1 36 13 13 (6084)
I0807 20:04:06.022783 26392 net.cpp:137] Memory required for data: 21156132
I0807 20:04:06.022789 26392 layer_factory.hpp:77] Creating layer rpn_cls_score_reshape
I0807 20:04:06.022796 26392 net.cpp:84] Creating Layer rpn_cls_score_reshape
I0807 20:04:06.022799 26392 net.cpp:406] rpn_cls_score_reshape <- rpn_cls_score
I0807 20:04:06.022805 26392 net.cpp:380] rpn_cls_score_reshape -> rpn_cls_score_reshape
I0807 20:04:06.022832 26392 net.cpp:122] Setting up rpn_cls_score_reshape
I0807 20:04:06.022840 26392 net.cpp:129] Top shape: 1 2 117 13 (3042)
I0807 20:04:06.022841 26392 net.cpp:137] Memory required for data: 21168300
I0807 20:04:06.022845 26392 layer_factory.hpp:77] Creating layer rpn_cls_prob
I0807 20:04:06.022850 26392 net.cpp:84] Creating Layer rpn_cls_prob
I0807 20:04:06.022852 26392 net.cpp:406] rpn_cls_prob <- rpn_cls_score_reshape
I0807 20:04:06.022856 26392 net.cpp:380] rpn_cls_prob -> rpn_cls_prob
I0807 20:04:06.023064 26392 net.cpp:122] Setting up rpn_cls_prob
I0807 20:04:06.023073 26392 net.cpp:129] Top shape: 1 2 117 13 (3042)
I0807 20:04:06.023077 26392 net.cpp:137] Memory required for data: 21180468
I0807 20:04:06.023079 26392 layer_factory.hpp:77] Creating layer rpn_cls_prob_reshape
I0807 20:04:06.023084 26392 net.cpp:84] Creating Layer rpn_cls_prob_reshape
I0807 20:04:06.023087 26392 net.cpp:406] rpn_cls_prob_reshape <- rpn_cls_prob
I0807 20:04:06.023092 26392 net.cpp:380] rpn_cls_prob_reshape -> rpn_cls_prob_reshape
I0807 20:04:06.023114 26392 net.cpp:122] Setting up rpn_cls_prob_reshape
I0807 20:04:06.023120 26392 net.cpp:129] Top shape: 1 18 13 13 (3042)
I0807 20:04:06.023123 26392 net.cpp:137] Memory required for data: 21192636
I0807 20:04:06.023125 26392 layer_factory.hpp:77] Creating layer proposal
I0807 20:04:06.023483 26392 net.cpp:84] Creating Layer proposal
I0807 20:04:06.023509 26392 net.cpp:406] proposal <- rpn_cls_prob_reshape
I0807 20:04:06.023514 26392 net.cpp:406] proposal <- rpn_bbox_pred
I0807 20:04:06.023517 26392 net.cpp:406] proposal <- im_info
I0807 20:04:06.023535 26392 net.cpp:380] proposal -> rois
I0807 20:04:06.024166 26392 net.cpp:122] Setting up proposal
I0807 20:04:06.024179 26392 net.cpp:129] Top shape: 1 5 (5)
I0807 20:04:06.024181 26392 net.cpp:137] Memory required for data: 21192656
I0807 20:04:06.024185 26392 layer_factory.hpp:77] Creating layer roi_pool5
I0807 20:04:06.024191 26392 net.cpp:84] Creating Layer roi_pool5
I0807 20:04:06.024194 26392 net.cpp:406] roi_pool5 <- conv5_relu5_0_split_1
I0807 20:04:06.024199 26392 net.cpp:406] roi_pool5 <- rois
I0807 20:04:06.024202 26392 net.cpp:380] roi_pool5 -> pool5
I0807 20:04:06.024210 26392 roi_pooling_layer.cpp:30] Spatial scale: 0.0625
I0807 20:04:06.024255 26392 net.cpp:122] Setting up roi_pool5
I0807 20:04:06.024261 26392 net.cpp:129] Top shape: 1 512 6 6 (18432)
I0807 20:04:06.024264 26392 net.cpp:137] Memory required for data: 21266384
I0807 20:04:06.024267 26392 layer_factory.hpp:77] Creating layer fc6
I0807 20:04:06.024273 26392 net.cpp:84] Creating Layer fc6
I0807 20:04:06.024276 26392 net.cpp:406] fc6 <- pool5
I0807 20:04:06.024281 26392 net.cpp:380] fc6 -> fc6
I0807 20:04:06.169325 26392 net.cpp:122] Setting up fc6
I0807 20:04:06.169355 26392 net.cpp:129] Top shape: 1 4096 (4096)
I0807 20:04:06.169358 26392 net.cpp:137] Memory required for data: 21282768
I0807 20:04:06.169378 26392 layer_factory.hpp:77] Creating layer relu6
I0807 20:04:06.169387 26392 net.cpp:84] Creating Layer relu6
I0807 20:04:06.169392 26392 net.cpp:406] relu6 <- fc6
I0807 20:04:06.169397 26392 net.cpp:367] relu6 -> fc6 (in-place)
I0807 20:04:06.169806 26392 net.cpp:122] Setting up relu6
I0807 20:04:06.169816 26392 net.cpp:129] Top shape: 1 4096 (4096)
I0807 20:04:06.169819 26392 net.cpp:137] Memory required for data: 21299152
I0807 20:04:06.169822 26392 layer_factory.hpp:77] Creating layer drop6
I0807 20:04:06.169829 26392 net.cpp:84] Creating Layer drop6
I0807 20:04:06.169832 26392 net.cpp:406] drop6 <- fc6
I0807 20:04:06.169836 26392 net.cpp:367] drop6 -> fc6 (in-place)
I0807 20:04:06.169862 26392 net.cpp:122] Setting up drop6
I0807 20:04:06.169870 26392 net.cpp:129] Top shape: 1 4096 (4096)
I0807 20:04:06.169872 26392 net.cpp:137] Memory required for data: 21315536
I0807 20:04:06.169875 26392 layer_factory.hpp:77] Creating layer fc7
I0807 20:04:06.169881 26392 net.cpp:84] Creating Layer fc7
I0807 20:04:06.169884 26392 net.cpp:406] fc7 <- fc6
I0807 20:04:06.169889 26392 net.cpp:380] fc7 -> fc7
I0807 20:04:06.177312 26392 net.cpp:122] Setting up fc7
I0807 20:04:06.177333 26392 net.cpp:129] Top shape: 1 1024 (1024)
I0807 20:04:06.177336 26392 net.cpp:137] Memory required for data: 21319632
I0807 20:04:06.177345 26392 layer_factory.hpp:77] Creating layer relu7
I0807 20:04:06.177352 26392 net.cpp:84] Creating Layer relu7
I0807 20:04:06.177356 26392 net.cpp:406] relu7 <- fc7
I0807 20:04:06.177361 26392 net.cpp:367] relu7 -> fc7 (in-place)
I0807 20:04:06.177574 26392 net.cpp:122] Setting up relu7
I0807 20:04:06.177583 26392 net.cpp:129] Top shape: 1 1024 (1024)
I0807 20:04:06.177585 26392 net.cpp:137] Memory required for data: 21323728
I0807 20:04:06.177588 26392 layer_factory.hpp:77] Creating layer drop7
I0807 20:04:06.177594 26392 net.cpp:84] Creating Layer drop7
I0807 20:04:06.177597 26392 net.cpp:406] drop7 <- fc7
I0807 20:04:06.177601 26392 net.cpp:367] drop7 -> fc7 (in-place)
I0807 20:04:06.177625 26392 net.cpp:122] Setting up drop7
I0807 20:04:06.177631 26392 net.cpp:129] Top shape: 1 1024 (1024)
I0807 20:04:06.177634 26392 net.cpp:137] Memory required for data: 21327824
I0807 20:04:06.177637 26392 layer_factory.hpp:77] Creating layer fc7_drop7_0_split
I0807 20:04:06.177646 26392 net.cpp:84] Creating Layer fc7_drop7_0_split
I0807 20:04:06.177649 26392 net.cpp:406] fc7_drop7_0_split <- fc7
I0807 20:04:06.177654 26392 net.cpp:380] fc7_drop7_0_split -> fc7_drop7_0_split_0
I0807 20:04:06.177659 26392 net.cpp:380] fc7_drop7_0_split -> fc7_drop7_0_split_1
I0807 20:04:06.177690 26392 net.cpp:122] Setting up fc7_drop7_0_split
I0807 20:04:06.177695 26392 net.cpp:129] Top shape: 1 1024 (1024)
I0807 20:04:06.177698 26392 net.cpp:129] Top shape: 1 1024 (1024)
I0807 20:04:06.177701 26392 net.cpp:137] Memory required for data: 21336016
I0807 20:04:06.177703 26392 layer_factory.hpp:77] Creating layer cls_score
I0807 20:04:06.177711 26392 net.cpp:84] Creating Layer cls_score
I0807 20:04:06.177713 26392 net.cpp:406] cls_score <- fc7_drop7_0_split_0
I0807 20:04:06.177718 26392 net.cpp:380] cls_score -> cls_score
I0807 20:04:06.180722 26392 net.cpp:122] Setting up cls_score
I0807 20:04:06.180745 26392 net.cpp:129] Top shape: 1 267 (267)
I0807 20:04:06.180748 26392 net.cpp:137] Memory required for data: 21337084
I0807 20:04:06.180755 26392 layer_factory.hpp:77] Creating layer bbox_pred
I0807 20:04:06.180763 26392 net.cpp:84] Creating Layer bbox_pred
I0807 20:04:06.180766 26392 net.cpp:406] bbox_pred <- fc7_drop7_0_split_1
I0807 20:04:06.180771 26392 net.cpp:380] bbox_pred -> bbox_pred
I0807 20:04:06.190659 26392 net.cpp:122] Setting up bbox_pred
I0807 20:04:06.190670 26392 net.cpp:129] Top shape: 1 1068 (1068)
I0807 20:04:06.190673 26392 net.cpp:137] Memory required for data: 21341356
I0807 20:04:06.190680 26392 layer_factory.hpp:77] Creating layer cls_prob
I0807 20:04:06.190685 26392 net.cpp:84] Creating Layer cls_prob
I0807 20:04:06.190687 26392 net.cpp:406] cls_prob <- cls_score
I0807 20:04:06.190692 26392 net.cpp:380] cls_prob -> cls_prob
I0807 20:04:06.190929 26392 net.cpp:122] Setting up cls_prob
I0807 20:04:06.190938 26392 net.cpp:129] Top shape: 1 267 (267)
I0807 20:04:06.190942 26392 net.cpp:137] Memory required for data: 21342424
I0807 20:04:06.190944 26392 net.cpp:200] cls_prob does not need backward computation.
I0807 20:04:06.190948 26392 net.cpp:200] bbox_pred does not need backward computation.
I0807 20:04:06.190951 26392 net.cpp:200] cls_score does not need backward computation.
I0807 20:04:06.190954 26392 net.cpp:200] fc7_drop7_0_split does not need backward computation.
…
